…
        },
        "id": "po9TLA1URoh9",
        "outputId": "0b8441c1-38a3-4f4d-916d-6794b11c9114"
      },
      "source": [
        "model.summary()"
      ],
      "execution_count": null,
      "outputs": [
        {
          "output_type": "stream",
          "text": [
            "Model: \"sequential\"\n",
            "_________________________________________________________________\n",
            "Layer (type)                 Output Shape              Param #   \n",
            "=================================================================\n",
            "rescaling (Rescaling)        (None, 224, 224, 3)       0         \n",
            "_________________________________________________________________\n",
            "conv2d (Conv2D)              (None, 224, 224, 16)      448       \n",
            "_________________________________________________________________\n",
            "max_pooling2d (MaxPooling2D) (None, 112, 112, 16)      0         \n",
            "_________________________________________________________________\n",
            "conv2d_1 (Conv2D)            (None, 112, 112, 32)      4640      \n",
            "_________________________________________________________________\n",
            "max_pooling2d_1 (MaxPooling2 (None, 56, 56, 32)        0         \n",
            "_________________________________________________________________\n",
            "conv2d_2 (Conv2D)            (None, 56, 56, 64)        18496     \n",
            "_________________________________________________________________\n",
            "max_pooling2d_2 (MaxPooling2 (None, 28, 28, 64)        0         \n",
            "_________________________________________________________________\n",
            "flatten (Flatten)            (None, 50176)             0         \n",
            "_________________________________________________________________\n",
            "dense (Dense)                (None, 128)               6422656   \n",
            "_________________________________________________________________\n",
            "dense_1 (Dense)              (None, 4)                 516       \n",
            "=================================================================\n",
            "Total params: 6,446,756\n",
            "Trainable params: 6,446,756\n",
            "Non-trainable params: 0\n",
            "_________________________________________________________________\n"
          ],
          "name": "stdout"
        }
      ]
    },
    {
      "cell_type": "markdown",
…
